onnx/resnet8teacher/resnet8.onnx (onnx, 313738 bytes, 20 tensors)

fc.weight f4 [10, 64]
-0.4517723 -0.103415385 -0.022490654 -0.3163875 -0.53699434 -0.5423368 -0.14924526 1.2130784
0.7323369 -0.47037366 -0.27964726 -0.6686257 -0.5613977 0.01988871 -0.04056791 -0.00114498
-0.35569713 -0.6288102 0.7250374 0.26553145 0.4730775 -0.19785506 -0.42274526 -0.64425105
0.22049852 -0.22306962 0.56606054 0.74294883 0.11960166 -0.18795146 -0.78002954 -0.52668816
0.33278206 -0.36659104 0.2015232 0.7741781 1.0284681 0.10710243 -0.5572422 -0.117962725
-0.2875419 -0.082792684 0.8910206 -0.18811408 -0.4517105 -0.44820085 -0.53878593 -0.35232705
0.37295514 -0.24788557 1.290404 -0.12177793 0.43053856 -0.093042426 0.29054078 0.068397395
0.33214313 0.23770401 0.5383541 -0.17386423 -0.62685436 -0.35931563 -0.40167347 -0.11486929
-0.28303033 -0.15390779 -0.44121245 -0.12292677 -0.34253618 -0.59543025 0.4397325 -0.5286779
0.6332854 0.73487276 -0.23937857 -0.06912539 0.1905369 -0.48537266 0.5477677 -0.27700192
-0.18157673 -0.08151079 -0.46695325 -0.21180108 -0.25571755 -0.13756192 -0.46223378 -0.3548056
-0.53201485 -0.07411981 0.6186292 -0.23988597 -0.49839085 1.6923392 -0.0012920647 1.4208434
-0.21109629 -0.1574334 -0.26975954 -0.63456434 0.092078246 -0.27120537 -0.2049771 -0.049019188
0.0787229 0.18149392 -0.1426089 -0.3796792 0.772508 -0.17549017 1.00375 -0.19842105
-0.33131105 0.10230786 -0.32024622 -0.08935834 -0.047492277 -0.05012916 -0.15305431 0.8288868
0.41532308 1.123987 0.009638364 -0.17459105 0.20453927 -0.17032757 -0.75917166 -0.27918226
-0.36715242 0.6526664 0.76808405 0.24084552 -0.004170088 -0.3003424 -0.3375044 -0.43458647
-0.61512035 0.12324051 0.9030644 0.7058793 -0.5294184 -0.3735441 -0.53067863 -0.6264401
0.9431641 -0.5007321 0.66537803 0.3776518 0.58106273 0.082937635 -0.15633953 0.0077645597
0.13001311 -0.7933784 -0.38937953 -0.17116146 0.0114248 -0.17172676 1.0141524 -0.31850463
-0.04195347 0.11972234 -0.31644985 0.30732372 -0.043028247 -0.7526332 -0.13042045 1.4350175
-0.40986043 -0.083335295 -0.17536904 0.3861037 -0.09471013 -0.031978976 -0.10184184 -0.56887114
0.5423009 -0.3072948 0.66015965 -0.28150347 0.18978785 1.2775944 -0.30483684 0.33133364
-0.81408125 -0.49946812 0.08421441 1.8195918 -0.4437481 -0.33526376 -0.3106315 1.5798069
-0.09945855 -0.103489265 0.09749569 0.4938238 0.5203256 0.20734617 -0.4467609 0.3266005
-0.41875857 0.0012414382 -0.7059407 0.19697943 -0.24450551 -0.44549182 0.15614636 1.2365954
0.35575622 0.4583741 -0.013079267 0.29234734 0.09989879 -0.46027172 -0.178678 0.79507935
0.09904935 0.34943628 -0.3945523 0.39292926 -0.43717292 -0.3409573 -0.27784458 -0.20213519
0.3969123 -0.25826156 0.41998723 -0.23487855 -0.4045214 0.3249604 0.022096805 -0.020717861
-0.56635576 0.75666565 0.11332103 0.67572534 -0.41290554 -0.03572324 -0.27701056 -0.46298593
-0.03509002 -0.5080423 -0.30673462 1.741831 -0.77587926 -0.2137107 -0.17489956 0.49607518
0.13277812 0.28151625 0.15359314 -0.20330182 -0.25017604 1.1484523 -0.092000455 -0.23704426
00000000: b34e e7be 72cb d3bd 523e b8bc 8bfd a1be
00000010: 7678 09bf 96d6 0abf c0d3 18be 2746 9b3f
00000020: 6e7a 3b3f d1d4 f0be ed2d 8fbe 0e2b 2bbf
00000030: c2b7 0fbf a6ed a23c 892a 26bd 2713 96ba
00000040: ef1d b6be b5f9 20bf 0d9c 393f bdf3 873e
00000050: 3737 f23e 849a 4abe 1172 d8be a3ed 24bf
00000060: 5dca 613e 5d6c 64be 58e9 103f e531 3e3f
00000070: b7f1 f43d 5976 40be 04b0 47bf 09d5 06bf
00000080: 6962 aa3e d2b1 bbbe 195c 4e3e 8930 463f
00000090: d8a4 833f 8558 db3d 6da7 0ebf 7196 f1bd
000000a0: b138 93be 368f a9bd ed19 643f faa0 40be
000000b0: 9946 e7be 957a e5be e0ed 09bf 3664 b4be
000000c0: faf3 be3e b7d5 7dbe f52b a53f b566 f9bd
000000d0: 8d6f dc3e 078d bebd c3c1 943e ef13 8c3d
000000e0: aa0e aa3e ae68 733e 93d1 093f 7709 32be
000000f0: 8779 20bf 38f8 b7be 25a8 cdbe 9740 ebbd
00000100: 5ae9 90be 019a 1dbe 99e6 e1be 08c1 fbbd
00000110: e760 afbe 1e6e 18bf 9e24 e13e 6f57 07bf
00000120: fe1e 223f 9f20 3c3f a81f 75be 9d91 8dbd
00000130: 1b1c 433e c482 f8be 813a 0c3f 32d3 8dbe
00000140: 40ef 39be 21ef a6bd 7f14 efbe 62e2 58be
00000150: 69ed 82be 08dd 0cbe e8a9 ecbe 14a9 b5be
00000160: 2032 08bf 20cc 97bd 7c5e 1e3f aba4 75be
00000170: 162d ffbe 929e d83f 7f5a a9ba 32de b53f
00000180: a029 58be 3936 21be ec1d 8abe cf72 22bf
00000190: 8593 bc3d 6edb 8abe 84e5 51be 58c8 48bd
000001a0: 7939 a13d 8bd9 393e 1108 12be 5065 c2be
000001b0: 16c3 453f b2b3 33be e17a 803f e32e 4bbe
000001c0: 9aa1 a9be c986 d13d 50f7 a3be 8101 b7bd
000001d0: 4387 42bd 3c54 4dbd 45ba 1cbe ed31 543f
000001e0: 3aa5 d43e cede 8f3f 3bea 1d3c ffc7 32be
000001f0: be72 513e 5a6a 2ebe 1359 42bf faf0 8ebe
00000200: 67fb bbbe 2515 273f 28a1 443f 35a0 763e
00000210: 3ca5 88bb 7bc6 99be 60cd acbe 1e82 debe
00000220: 8778 1dbf 8565 fc3d 3b2f 673f 81b4 343f
00000230: f787 07bf 2c41 bfbe 8eda 07bf 615e 20bf
00000240: 3473 713f fb2f 00bf 3756 2a3f 945b c13e
00000250: 87c0 143f 35db a93d 7817 20be d96d fe3b
00000260: 2822 053e d91a 4bbf c15c c7be f344 2fbe
00000270: 162f 3b3c 24d9 2fbe bfcf 813f 0a13 a3be
00000280: 67d7 2bbd fc30 f53d b705 a2be 8959 9d3e
00000290: 633e 30bd 92ac 40bf f08c 05be a7ae b73f
000002a0: 3ad9 d1be b2ab aabd f193 33be 62af c53e
000002b0: 62f7 c1bd 63fc 02bd 7492 d0bd 8aa1 11bf
000002c0: 3bd4 0a3f be55 9dbe 3900 293f 3921 90be
000002d0: bf57 423e 3788 a33f 9313 9cbe 90a4 a93e
000002e0: a167 50bf 49ba ffbe 9b78 ac3d 62e8 e83f
000002f0: f332 e3be b1a7 abbe 180b 9fbe 1d37 ca3f
00000300: edb0 cbbd 2ef2 d3bd d2ab c73d 79d6 fc3e
00000310: 0f34 053f 8e52 543e d8bd e4be 2e38 a73e
00000320: 8667 d6be c1b7 a23a 88b8 34bf fab4 493e
00000330: a75f 7abe 8117 e4be d5e4 1f3e c248 9e3f
00000340: ae25 b63e 03b0 ea3e 6c4a 56bc 8dae 953e
00000350: bd97 cc3d bca8 ebbe 5ef7 36be 528a 4b3f
00000360: 63da ca3d 50e9 b23e c202 cabe 062e c93e
00000370: 21d5 dfbe f591 aebe a541 8ebe 87fc 4ebe
00000380: 1738 cb3e dc3a 84be 9108 d73e 0184 70be
00000390: 6e1d cfbe 3661 a63e 5c04 b53c 81b8 a9bc
000003a0: b1fc 10bf d7b4 413f db14 e83d 56fc 2c3f
000003b0: 5b68 d3be 8852 12bd 54d4 8dbe 7e0c edbe
000003c0: 8eba 0fbd 0f0f 02bf 520c 9dbe 51f4 de3f
000003d0: 06a0 46bf fad6 5abe df18 33be 91fd fd3e
000003e0: fdf6 073e e622 903e 8547 1d3e 5a2e 50be
000003f0: 1317 80be 7c00 933f bc6a bcbd bbbb 72be

fc.bias f4 [10]
0.2568001 -0.23640795 0.1304687 0.12285722 0.13784365 -0.1302449 0.0807059 -0.05013645
-0.16775072 -0.14414376
00000000: 4d7b 833e ed14 72be 9699 053e 919c fb3d
00000010: e326 0d3e eb5e 05be 2349 a53d e15b 4dbd
00000020: d8c6 2bbe 6c9a 13be

95 f4 [16, 3, 3, 3]
-1.2536331e-22 -8.098684e-23 8.875139e-23 -5.600364e-22 -9.281881e-22 -7.779438e-22 -8.466938e-22 -1.3187924e-21
-1.1686652e-21 1.5680491e-22 4.0029773e-22 3.465167e-22 1.1816735e-22 -4.160212e-23 -9.0436055e-23 -2.1025009e-22
-4.716159e-22 -4.4948805e-22 6.55848e-22 1.2254982e-21 1.1380149e-21 1.0460817e-21 1.2651284e-21 1.1976336e-21
4.966135e-22 6.7494283e-22 6.562275e-22 -0.03623914 -0.103111714 0.15635815 -0.21431123 0.6355242
-0.34711996 -0.03937284 -0.09394876 0.09971733 0.055356722 -0.03061913 0.09948103 -0.18328182
0.66750085 -0.4925063 -0.11131507 -0.13165465 0.07161862 0.013660905 -0.1813167 0.049271293
-0.08271296 0.44444862 -0.36186165 0.009372417 0.09592889 0.07066071 -0.083751395 0.21666488
0.12005841 -0.17284837 -0.17605402 0.14609353 -0.100766994 0.0075683985 0.04343018 0.04424614
0.14050996 -0.039500285 -0.01023313 -0.24233837 -0.07017331 0.09006433 0.08604578 0.035164587
0.109320745 0.16866654 -0.038953856 0.05021334 -0.17108901 -0.107243195 0.06966257 -0.025709009
-0.066759914 -0.01670646 0.03591817 0.031100266 0.0039707255 0.022897117 0.010428667 -0.021394672
-0.025878927 -0.016681748 0.016762845 0.07187198 0.05212566 0.019101167 0.04093809 0.020179732
-0.028722579 -0.032387916 -0.026673844 0.0029020905 0.04143616 0.03512257 0.0048086545 0.018943567
0.011802403 -0.010923115 -0.018279336 -0.002651052 -0.0155122345 0.023837103 -0.002978744 -0.13462748
0.07652966 0.076210976 0.009787389 0.040739033 -0.066251695 -0.083008915 0.022532219 0.041497707
-0.20949417 0.075824484 0.14927393 -0.028700177 0.046628617 0.004737992 -0.023567941 0.016910862
0.008950993 -0.17529395 0.045228407 0.10637889 -0.044744022 0.030247977 0.014319778 9.174231e-27
-6.0428496e-26 -1.941956e-26 -8.153787e-26 -9.585453e-26 -8.736807e-26 -4.221222e-26 -5.2004373e-26 -7.9390536e-26
4.6489638e-27 -1.8216123e-26 1.4002523e-26 4.8385146e-27 2.6176657e-26 2.0440682e-26 2.5777406e-26 1.2463138e-28
4.0709928e-26 -3.77938e-26 7.461155e-27 2.2831918e-26 6.318486e-27 4.196811e-26 2.624216e-26 4.5919892e-26
3.764106e-26 3.276343e-26 -0.030872105 -0.030689843 -0.033345617 0.14145167 0.18705702 -0.013333689
0.08188624 0.1366526 -0.019213064 -0.07687964 -0.18445002 -0.06052532 -0.0052890833 -0.0986151
-0.038801532 0.0101620965 -0.06726216 0.014324907 0.032962725 0.09875644 0.14115159 0.013072545
0.08326462 0.11812435 -0.13010675 -0.10811396 -0.034924444 -9.133931e-26 -8.7473445e-26 -1.4099484e-25
-5.5433013e-27 8.872061e-27 4.5010936e-26 7.097758e-27 -1.9285519e-28 1.7401994e-26 -2.2583433e-26 3.6564674e-26
-5.840685e-26 -4.4133185e-27 6.361644e-26 6.850519e-26 -7.590768e-26 3.1449906e-27 -9.548011e-27 1.243142e-26
7.7708845e-26 -4.785931e-26 8.2667384e-27 9.7699603e-26 8.1673814e-26 -9.6919993e-26 -5.3367075e-26 -7.066737e-26
0.023306737 -0.0022951667 -0.0049096574 0.051367298 -0.01197266 -0.06745875 0.005076017 -0.0028820366
-0.015068001 0.046800103 -0.0026268084 -0.036912482 0.094207205 0.007627357 -0.09683432 0.05075287
0.02839381 -0.03195187 0.032320704 -0.0056586578 -0.042544022 0.084848806 0.004444972 -0.1106577
0.04404207 0.015284553 -0.06638591 1.6532038e-23 1.6749513e-23 1.0283811e-23 1.2327037e-23 1.2733702e-23
1.0455342e-24 1.1405115e-23 9.50655e-24 -2.4764533e-24 -7.811186e-25 -1.20694164e-23 -1.714708e-23 -5.135966e-24
00000000: 118e 179b 6dd0 c39a 7396 d61a b842 299c
00000010: 8a43 8c9c 7c1e 6b9c c2e5 7f9c 4f4a c79c
00000020: 8c9a b09c c590 3d1b 13f7 f11b dd74 d11b
00000030: 06db 0e1b ee2c 499a 35a9 da9a 402d 7e9b
00000040: 8389 0e9c 74d9 079c c837 461c 2a31 b91c
00000050: d2f8 ab1c 5314 9e1c 492e bf1c 35fb b41c
00000060: 9c17 161c 2cfd 4b1c 2555 461c 7e6f 14bd
00000070: 3c2c d3bd 5a1c 203e 6774 5bbe b7b1 223f
00000080: b5b9 b1be 6a45 21bd 3568 c0bd 9938 cc3d
00000090: bbbd 623d f8d4 fabc b6bc cb3d 3bae 3bbe
000000a0: 56e1 2a3f c929 fcbe 28f9 e3bd 7ad0 06be
000000b0: c8ac 923d fdd1 5f3c 16ab 39be b2d0 493d
000000c0: 6a65 a9bd c58e e33e ee45 b9be c48e 193c
000000d0: 5e76 c43d 90b6 903d da85 abbd 66dd 5d3e
000000e0: 2fe1 f53d 2aff 30be 8147 34be 8b99 153e
000000f0: ed5e cebd 5400 f83b d8e3 313d 713b 353d
00000100: d8e1 0f3e 0dcb 21bd dca8 27bc 8d27 78be
00000110: 06b7 8fbd a673 b83d c538 b03d be08 103d
00000120: 8ee3 df3d ecb6 2c3e 148e 1fbd 81ac 4d3d
00000130: f531 2fbe 52a2 dbbd 40ab 8e3d b39b d2bc
00000140: 6cb9 88bd fcdb 88bc ee1e 133d fcc5 fe3c
00000150: dc1c 823b bc92 bb3c 00dd 2a3c e143 afbc
00000160: 0b00 d4bc 29a8 88bc 3c52 893c 9e31 933d
00000170: b781 553d 0d7a 9c3c b3ae 273d f74f a53c
00000180: 9d4b ebbc 31a9 04bd 1b83 dabc 0031 3e3b
00000190: f7b8 293d afdc 0f3d eb91 9d3b 8a2f 9b3c
000001a0: de5e 413c ddf6 32bc 8cbe 95bc 46bd 2dbb
000001b0: 0727 7ebc 0746 c33c 0837 43bb c9db 09be
000001c0: 95bb 9c3d 8014 9c3d 495b 203c f9dd 263d
000001d0: f8ae 87bd 9400 aabd 7d95 b83c 80f9 293d
000001e0: a485 56be de49 9b3d 44db 183e a21c ebbc
000001f0: a6fd 3e3d 2841 9b3b 8e11 c1bc a688 8a3c
00000200: 30a7 123c 4280 33be 6c41 393d 2ddd d93d
00000210: 8245 37bd 9bca f73c 819d 6a3c e1b6 3514
00000220: 1c9d 9595 6f52 c094 c4e0 c995 0753 ed95
00000230: 1850 d895 5906 5195 b0c1 8095 bb8f c495
00000240: 182a b813 5c67 b494 9dac 8a14 5eac bf13
00000250: db9e 0115 496f ca14 7d49 ff14 32fd 1d11
00000260: f795 4915 5525 3b95 8dc8 1314 ca1d e214
00000270: 104d fa13 e6d0 4f15 e4f1 0115 6162 6315
00000280: b663 3a15 953c 2215 7fe7 fcbc 4469 fbbc
00000290: 6a95 08bd b5d8 103e e08b 3f3e 8c75 5abc
000002a0: f9b3 a73d a9ee 0b3e b764 9dbc 1373 9dbd
000002b0: 77e0 3cbe 66e9 77bd 0c50 adbb b7f6 c9bd
000002c0: 5bee 1ebd ec7e 263c bec0 89bd 04b3 6a3c
000002d0: ec03 073d d140 ca3d 0b8a 103e 3a2e 563c
000002e0: a486 aa3d 2eeb f13d b43a 05be da6a ddbd
000002f0: ef0c 0fbd 2a25 e295 e292 d895 0c8b 2e96
00000300: c197 db93 b2ba 2f14 24e2 5e15 e995 0c14
00000310: 1679 7491 4c57 ac14 cea7 df94 3b0f 3515
00000320: bd9b 9095 5ed4 ae93 b681 9d15 539c a915
00000330: 35f0 bb95 fd2b 7913 2b1e 3d94 ca3a 7614
00000340: d565 c015 e2fc 6c95 58bd 2314 7be4 f115
00000350: ee36 ca15 58f6 ef95 6721 8495 c4f6 ae95
00000360: c5ed be3c 826a 16bb 31e1 a0bb 8466 523d
00000370: fa28 44bc d027 8abd b854 a63b 8de0 3cbb
00000380: c7df 76bc 77b1 3f3d 8826 2cbb 8b31 17bd
00000390: b5ef c03d e8ee f93b 1251 c6bd 3ee2 4f3d
000003a0: 239a e83c f7df 02bd b762 043d 436c b9bb
000003b0: a442 2ebd 36c5 ad3d 21a7 913b 81a0 e2bd
000003c0: 7565 343d 106c 7a3c 56f5 87bd 58e3 9f19
000003d0: c9fd a119 f7ea 4619 8870 6e19 3d4e 7619
000003e0: e0c9 a117 659b 5c19 28e2 3719 369b 3f98
000003f0: 97be 7197 db74 6999 1dd6 a599 25b0 c698

96 f4 [16]
-6.389923e-12 0.5567852 0.2912992 -0.13233843 0.18814245 -1.0889396e-13 0.23149842 -3.8622324e-14
0.13478804 -6.650757e-13 -0.11753193 0.44664055 -0.83291906 0.14171112 0.26802635 0.16819264
00000000: 4fd3 e0ac 7a89 0e3f 2b25 953e ba83 07be
00000010: 6aa8 403e 1835 f5a9 ec0d 6d3e 82f0 2da9
00000020: e005 0a3e c133 3bab 95b4 f0bd 12ae e43e
00000030: 2f3a 55bf b81c 113e c03a 893e b13a 2c3e

98 f4 [16, 16, 3, 3]
1.4503725e-13 -9.232164e-13 -2.2993158e-13 -2.6478526e-13 -2.4505734e-13 1.5165272e-12 4.912978e-13 1.4351403e-12
3.6626375e-12 0.035464495 -0.024171086 0.056275286 -0.14286837 -0.25710043 0.15132713 0.010607855
-0.0095691625 0.042985275 0.08360953 0.027260039 -0.061968464 0.13899487 -0.039772995 -0.122519255
-0.048539773 -0.11113401 0.009929922 -0.013374072 -0.030394485 -0.058633678 -0.030040313 -0.043705434
-0.02472894 -0.015090059 -0.012156227 0.00068774336 -0.038756225 0.03707763 0.043081526 0.0046573225
0.26217717 0.21286571 0.064671494 0.13212863 0.033003416 1.6933613e-14 -2.5913057e-15 3.3536603e-15
5.5523865e-15 2.1343208e-15 4.9667124e-15 6.600291e-15 2.783658e-16 1.8101846e-14 0.07723193 0.02376713
-0.031136911 0.00902999 0.020961845 0.030505937 -0.01789676 -0.009372363 -0.106926456 -5.841781e-15
-8.530866e-15 4.3929466e-15 -2.3007919e-14 2.2262543e-14 2.6389508e-14 -1.6564453e-15 7.0221674e-15 3.7182534e-14
-0.13383102 -0.15717608 -0.049465798 -0.23041032 -0.2883666 -0.1695977 -0.20315582 -0.23046234
-0.09942878 -3.4967466e-13 -2.9244226e-13 -2.5744858e-13 -3.7530883e-13 -3.5401274e-13 -3.7811055e-13 -2.755872e-13
-3.225403e-13 -3.9899597e-13 0.10700612 0.05722731 0.01053722 0.12665421 0.021514982 -0.06937972
-0.0149580445 -0.029253706 -0.06317896 -0.09567875 0.029194092 0.098059 -0.0027625365 0.0024287836
-0.011892625 0.0017195881 -0.00024493344 -0.038851537 0.035037257 0.035132185 -0.0068301684 0.080423184
0.011924909 -0.08774283 -0.035032358 -0.03692229 -0.08351536 -0.010415598 -0.042657815 0.06625052
-0.047020823 -0.04573987 0.07807154 -0.027015125 0.031233534 0.14141312 -0.07420451 -0.066768356
0.078918114 -0.017429424 -0.06387542 -0.039481584 0.12903924 -0.0064030746 -0.14506297 0.039969508
-0.06755454 -0.046535436 0.011679715 -0.015673079 0.030107802 -0.0451206 -0.023050364 0.050382275
1.2758487e-14 -2.0225848e-12 -2.334966e-12 1.8877654e-13 -1.70875e-12 -1.9870791e-12 1.1660118e-12 7.6045935e-13
4.4773798e-13 0.3888304 0.052329507 -0.21503091 -0.30041772 0.1016039 0.29885176 0.059147667
-0.18811975 0.23552406 -0.09862215 -0.26591972 -0.05601838 0.2728669 0.005231148 0.2684599
-0.055034805 0.12254067 0.04545917 0.0155821415 -0.037381385 -0.090577655 0.017585142 0.050101522
0.03123851 0.12405018 0.18132941 0.21201964 -0.18596989 0.016742082 0.29659775 -0.0057813926
0.11038466 0.037058942 -0.029509397 0.13642779 0.23402238 -1.6714645e-14 3.0691195e-14 3.6639572e-14
1.8814342e-14 3.40782e-14 9.373676e-15 2.3981387e-14 4.0655e-14 -1.9371048e-15 0.082623705 -0.009404521
-0.08933486 0.013231724 -0.028989032 -0.18024783 0.35269332 0.2724684 0.1311488 2.483962e-14
-3.653791e-15 1.2457521e-14 1.8616935e-14 3.1138175e-14 1.9175908e-14 2.1022145e-14 -1.5942868e-14 2.9191684e-15
0.0037823683 0.0851731 -0.07529411 -0.18587402 0.04648159 0.109669745 -0.039968345 0.10187534
-0.055960592 3.734266e-14 -2.1610923e-13 -4.4756253e-13 1.1214668e-13 -4.6511714e-14 -1.7260236e-13 2.1607046e-13
6.581243e-14 -3.061736e-14 -0.27381727 -0.0046828333 -0.05511708 0.06464941 0.25933632 0.41339508
-0.23913018 0.041666545 -0.030537559 -0.08155222 0.08427159 0.15190054 -0.10180893 -0.11736324
-0.033360735 -0.07650806 -0.06727484 0.14027685 0.11518387 0.42109832 0.41769886 0.4725466
00000000: 244c 232a 60ee 81ab a270 81aa 940f 95aa
00000010: 7cf4 89aa a76e d52b bd49 0a2b 61fa c92b
00000020: 1bde 802c 3843 113d 7102 c6bc ea80 663d
00000030: 164c 12be aba2 83be 80f5 1a3e 92cc 2d3c
00000040: fac7 1cbc 5411 303d 793b ab3d 7250 df3c
00000050: a5d2 7dbd ac54 0e3e 02e9 22bd 60eb fabd
00000060: a4d1 46bd 3a9a e3bd 1db1 223c ec1e 5bbc
00000070: dbfd f8bc de29 70bd 1a17 f6bc 7804 33bd
00000080: 5994 cabc 4b3c 77bc e92a 47bc ad49 343a
00000090: d9be 1ebd b7de 173d 4176 303d 749c 983b
000000a0: 163c 863e 78f9 593e 7d72 843d ba4c 073e
000000b0: 972e 073d 4186 9828 27b9 3aa7 1da8 7127
000000c0: ba0b c827 45cb 1927 d6f1 b227 f0cc ed27
000000d0: 8b77 a025 040c a328 c62b 9e3d 49b3 c23c
000000e0: d612 ffbc 86f2 133c 2db8 ab3c 96e7 f93c
000000f0: 3a9c 92bc 8a8e 19bc 42fc dabd eb78 d2a7
00000100: adad 19a8 c845 9e27 a63c cfa8 ee85 c828
00000110: 10b2 ed28 0cb8 eea6 1000 fd27 8b74 2729
00000120: 000b 09be c4f2 20be a69c 4abd aff0 6bbe
00000130: c9a4 93be 05ab 2dbe 1408 50be 52fe 6bbe
00000140: 51a1 cbbd 6ed9 c4aa 5fa1 a4aa 40ee 90aa
00000150: b447 d3aa 9d4a c7aa 79db d4aa 4d24 9baa
00000160: f592 b5aa 619d e0aa 0626 db3d 2f67 6a3d
00000170: 4ea4 2c3c a4b1 013e 3040 b03c f416 8ebd
00000180: 9612 75bc 78a5 efbc f863 81bd 38f3 c3bd
00000190: 7328 ef3c 28d3 c83d ac0b 35bb 3a2c 1f3b
000001a0: 49d9 42bc cd63 e13a 696a 80b9 ca22 1fbd
000001b0: 3a83 0f3d c4e6 0f3d 9bcf dfbb e9b4 a43d
000001c0: b260 433c 83b2 b3bd 177e 0fbd d43b 17bd
000001d0: 1a0a abbd 2fa6 2abc f6b9 2ebd 5aae 873d
000001e0: e898 40bd bb59 3bbd f9e3 9f3d d34e ddbc
000001f0: 78dd ff3c 9ace 103e 89f8 97bd d9bd 88bd
00000200: d29f a13d 27c8 8ebc 1ed1 82bd 71b7 21bd
00000210: dd22 043e e2d0 d1bb 638b 14be 11b7 233d
00000220: 095a 8abd f19b 3ebd 465c 3f3c d464 80bc
00000230: a3a4 f63c 61d0 38bd 1ed4 bcbc a55d 4e3d
00000240: 23d6 6528 a653 0eac 024f 24ac 228b 542a
00000250: 357c f0ab 09d4 0bac 011a a42b df0c 562b
00000260: d80d fc2a c714 c73e 7757 563d 1031 5cbe
00000270: 5ad0 99be b515 d03d 1903 993e d344 723d
00000280: 77a2 40be 382d 713e 69fa c9bd a126 88be
00000290: 8773 65bd 36b5 8b3e 0d6a ab3b 9373 893e
000002a0: 2d6c 61bd 9af6 fa3d 6533 3a3d 3d4c 7f3c
000002b0: 391d 19bd c780 b9bd b70e 903c 4137 4d3d
000002c0: e7e7 ff3c 050e fe3d 6bae 393e ad1b 593e
000002d0: e46e 3ebe b126 893c a9db 973e d671 bdbb
000002e0: 5a11 e23d 1ecb 173d b1bd f1bc bab3 0b3e
000002f0: 90a3 6f3e 598d 96a8 8a38 0a29 8d02 2529
00000300: eb76 a928 7d79 1929 73dc 2828 5001 d828
00000310: 0618 3729 4795 0ba7 9e36 a93d 6c15 1abc
00000320: 32f5 b6bd dfc9 583c 687a edbc e392 38be
00000330: 3894 b43e fa80 8b3e df4b 063e 44bc df28
00000340: 46a4 83a7 2d6a 6028 bbaf a728 df3b 0c29
00000350: a2b8 ac28 c459 bd28 c099 8fa8 2759 5227
00000360: 9ce1 773b 3c6f ae3d cc33 9abd c255 3ebe
00000370: 7b63 3e3d 889a e03d d9b5 23bd 05a4 d03d
00000380: ef36 65bd 282d 2829 3f51 73aa 8ff4 fbaa
00000390: 2988 fc29 5b78 51a9 3e55 42aa 1246 732a
000003a0: 4832 9429 6ae3 09a9 c731 8cbe 7472 99bb
000003b0: 73c2 61bd e966 843d bbc7 843e 85a8 d33e
000003c0: 8bde 74be 8aaa 2a3d e729 fabc da04 a7bd
000003d0: 9596 ac3d d18b 1b3e 3381 d0bd 235c f0bd
000003e0: 44a5 08bd 42b0 9cbd 64c7 89bd bca4 0f3e
000003f0: 85e5 eb3d 339a d73e a0dc d53e a1f1 f13e

99 f4 [16]
0.22141778 -1.4360418 0.0117848385 1.0397265 -0.1305622 0.24392314 0.0028226543 0.9553399
1.0564117 -0.10679616 0.49270573 0.8024801 -0.05465156 0.15661284 0.59927565 0.90911824
00000000: 58bb 623e 38d0 b7bf 3215 413c c215 853f
00000010: 19b2 05be fdc6 793e 48fc 383b 2891 743f
00000020: 8038 873f f2b7 dabd ed43 fc3e 566f 4d3f
00000030: 50da 5fbd 1e5f 203e 216a 193f f9bb 683f

101 f4 [16, 16, 3, 3]
-0.09937322 -0.20740007 -0.07866095 -0.31604055 -0.42609638 -0.10431136 -0.20475198 -0.14614147
0.088628866 -0.023417061 0.10315534 0.019312283 0.106939584 0.19308399 0.04977828 -0.14589445
-0.022054212 -0.0789118 0.080921866 0.26672336 0.29472378 -0.08479285 0.017047785 0.10558212
-0.088591464 -0.2855472 0.0075714644 -0.040933162 -0.09059802 -0.02184204 0.18578728 0.06660481
0.085697696 0.07669355 -0.05349933 -0.038799997 -0.0555147 0.023653116 0.0025427085 -0.27609184
-0.13976344 0.0053400723 -0.124783516 -0.07979657 0.04482199 -0.10432442 -0.114543006 -0.011783558
-0.049512263 -0.36594713 -0.24816646 0.114156686 -0.25346994 -0.32471958 0.16476168 0.27777848
0.10845866 -0.037347708 -0.061903916 0.038712364 0.033452243 0.03528533 0.17968896 -0.026047984
-0.11124928 -0.09815713 0.014004617 -0.024348708 0.07327794 0.04681171 -0.039437577 0.091918185
-0.12197289 -0.05841667 0.055258676 -0.011480062 0.09115498 0.09488885 -0.014241843 0.11357874
-0.040712483 0.07090471 0.034164824 0.011947107 0.06819574 0.027860822 0.030753473 0.08497852
0.021892518 0.017276729 0.026791792 0.030296378 0.13254759 0.08374521 0.038830668 0.13759503
0.06168925 0.107665375 0.21057867 0.0973572 0.05288785 -0.15196654 0.015055865 -0.10558234
0.05297126 -0.29079303 -0.08243338 0.017565856 -0.12235544 -0.09187991 -0.0751827 -0.42027286
-0.5056012 -0.3546577 -0.10113167 -0.46671185 -0.2414348 -0.07503227 0.085638106 0.13919365
-0.064690866 -0.07440447 -0.1576515 0.09847895 -0.07113013 0.10588039 -0.021164708 -0.03720326
-0.09481662 0.01613111 -0.07194744 -0.02444728 -0.061183807 -0.09876503 -0.07202547 0.08361503
-0.021568695 -0.03347614 0.025937773 0.01196794 0.06114747 -0.020641996 0.0079548275 0.04353557
-0.035209265 0.002439705 0.014280291 -0.06536965 0.08721148 0.03208789 -0.036705174 -0.008807435
0.16639802 0.13548109 -0.012138203 -0.052162573 0.074865066 0.03436409 0.11423904 -0.14482567
-0.030848112 0.095666975 -0.31149638 -0.32007387 0.025819693 -0.46608177 -0.21514978 0.10187845
-0.3258727 -0.13399269 -0.24106719 -0.15558252 -0.0021261582 0.1329585 -0.19653755 0.017238826
0.1092267 0.09402586 0.111928225 0.034711532 -0.029120665 -0.0058021643 0.08931103 0.0028154696
0.03478829 -0.06612684 0.10155284 -0.08959377 -0.030876068 0.08896322 -0.18179648 -0.11095226
-0.018045092 0.0043430594 -0.0765657 0.058811113 0.18834491 0.108848706 0.02338822 -0.12248361
0.20053588 -0.09880694 -0.13920128 -0.10404104 0.12878954 0.08062779 -0.06936556 0.14025217
0.022495633 -0.05400262 0.0009451803 -0.35655895 -0.15648612 -0.27174893 0.42322388 0.11021118
0.13877162 -0.02874068 0.008859881 0.15941954 -0.00048615845 -0.005003317 -0.06771667 -0.19582891
-0.12540086 0.15647164 0.011231699 -0.14933449 0.042675816 -0.15405849 -0.10484641 0.05679477
-0.042598307 0.046299987 -0.109958656 -0.18044886 -0.07155896 -0.31050488 -0.2516761 -0.021242367
0.04152614 0.08050153 0.11968273 -0.30682743 0.08284861 0.22573493 0.22330289 0.4027102
-0.2122921 0.28286216 -0.66311383 -0.3026899 0.1721485 -0.12834023 -0.10037168 0.10314242
00000000: 3084 cbbd af60 54be fe18 a1bd 11d0 a1be
00000010: 4e29 dabe 32a1 d5bd 81aa 51be 1ca6 15be
00000020: 0d83 b53d 23d5 bfbc 1b43 d33d cb34 9e3c
00000030: 2403 db3d cfb7 453e 4fe4 4b3d 5b65 15be
00000040: 09ab b4bc 839c a1bd 5dba a53d f78f 883e
00000050: 09e6 963e e0a7 adbd cca7 8b3c 703b d83d
00000060: 716f b5bd 3e33 92be 0c1a f83b 88a9 27bd
00000070: 748b b9bd 14ee b2bc 053f 3e3e 1a68 883d
00000080: 4682 af3d 8211 9d3d 1d22 5bbd bfec 1ebd
00000090: 6263 63bd 2ec4 c13c 92a3 263b e95b 8dbe
000000a0: 261e 0fbe c6fb ae3b 808e ffbd 626c a3bd
000000b0: 4397 373d 0ba8 d5bd 8695 eabd d30f 41bc
000000c0: 5fcd 4abd 6c5d bbbe 591f 7ebe fbca e93d
000000d0: d0c6 81be a541 a6be 49b7 283e fb38 8e3e
000000e0: 931f de3d e9f9 18bd f68e 7dbd db90 1e3d
000000f0: 3805 093d 5a87 103d 6200 383e 9562 d5bc
00000100: aad6 e3bd 9b06 c9bd 9f73 653c f176 c7bc
00000110: bf12 963d a3bd 3f3d 4c89 21bd 9a3f bc3d
00000120: eccc f9bd 5146 6fbd ec56 623d df16 3cbc
00000130: 76af ba3d 1655 c23d 9e56 69bc f89b e83d
00000140: 22c2 26bd 7d36 913d 6af0 0b3d ccbd 433c
00000150: 35aa 8b3d 613c e43c b5ee fb3c 3809 ae3d
00000160: f057 b33c ed87 8d3c 767a db3c 1c30 f83c
00000170: 8eba 073e 9c82 ab3d e80c 1f3d b6e5 0c3e
00000180: dead 7c3d aa7f dc3d efa1 573e 3663 c73d
00000190: eea0 583d 1e9d 1bbe e0ac 763c 8e3b d8bd
000001a0: 64f8 583d d3e2 94be d5d2 a8bd 45e6 8f3c
000001b0: 7d95 fabd 892b bcbd 63f9 99bd 012e d7be
000001c0: 156f 01bf b295 b5be 1f1e cfbd dbf4 eebe
000001d0: af3a 77be 85aa 99bd 0863 af3d c888 0e3e
000001e0: a57c 84bd 5f61 98bd 656f 21be 55af c93d
000001f0: acac 91bd d1d7 d83d 9c61 adbc 7262 18bd
00000200: 372f c2bd 6425 843c 2e59 93bd aa45 c8bc
00000210: df9b 7abd 5245 cabd 1782 93bd 5b3e ab3d
00000220: d5b0 b0bc 471e 09bd 747b d43c 2e15 443c
00000230: c575 7a3d 6719 a9bc f754 023c 5b52 323d
00000240: 9737 10bd 75e3 1f3b e2f7 693c 86e0 85bd
00000250: ef9b b23d 976e 033d 2a58 16bd 0f4d 10bc
00000260: 3e64 2a3e 8ebb 0a3e 50df 46bc 6ca8 55bd
00000270: db52 993d 5cc1 0c3d 28f6 e93d 2e4d 14be
00000280: 2eb5 fcbc 0ced c33d 747c 9fbe b9e0 a3be
00000290: d283 d33c 45a2 eebe 3950 5cbe a6a5 d03d
000002a0: c9d8 a6be 6135 09be 51da 76be 0651 1fbe
000002b0: 0457 0bbb 4626 083e 2441 49be 7038 8d3c
000002c0: 40b2 df3d a190 c03d a03a e53d ae2d 0e3d
000002d0: 768e eebc 1520 bebb b4e8 b63d be83 383b
000002e0: 2a7e 0e3d 826d 87bd effa cf3d f07c b7bd
000002f0: cfef fcbc 5932 b63d db28 3abe f03a e3bd
00000300: 4dd3 93bc 3950 8e3b 7ace 9cbd ece3 703d
00000310: 7ddd 403e 12ec de3d a798 bf3c b0d8 fabd
00000320: 4759 4d3e 4b5b cabd c88a 0ebe 7813 d5bd
00000330: 68e1 033e 2f20 a53d 880f 8ebd 449e 0f3e
00000340: c348 b83c da31 5dbd fac5 773a e58e b6be
00000350: e63d 20be ad22 8bbe cdb0 d83e 66b6 e13d
00000360: 261a 0e3e 9371 ebbc 0929 113c e03e 233e
00000370: 15e3 feb9 ddf2 a3bb 0aaf 8abd 6087 48be
00000380: 1569 00be 1a3a 203e 2905 383c 24eb 18be
00000390: d6cc 2e3d 82c1 1dbe b7b9 d6bd a2a1 683d
000003a0: 907b 2ebd 0ea5 3d3d 0132 e1bd 96c7 38be
000003b0: 818d 92bd 7ffa 9ebe b1db 80be 7904 aebc
000003c0: 5017 2a3d fcdd a43d 381c f53d 7c18 9dbe
000003d0: 88ac a93d 0f27 673e 83a9 643e 0830 ce3e
000003e0: 1a63 59be 4fd3 903e d4c1 29bf 2cfa 9abe
000003f0: b247 303e 9f6b 03be ab8f cdbd 553c d33d

102 f4 [16]
0.8885893 -0.0017917752 -0.7142664 0.47886124 0.43974024 0.44960845 0.06571951 0.32617643
0.4269148 0.7771969 0.18455423 -0.22897428 0.026901796 -0.52865386 -0.012984067 0.00513494
00000000: 977a 633f 00da eaba 2ada 36bf 4d2d f53e
00000010: a225 e13e 1433 e63e f397 863d 9900 a73e
00000020: 9494 da3e 60f6 463f c9fb 3c3e 3c78 6abe
00000030: 2861 dc3c dc55 07bf 20bb 54bc 0043 a83b

104 f4 [32, 16, 3, 3]
0.04063947 0.032510445 -0.004638898 0.065799415 -0.04787143 -0.07966615 -0.07756791 -0.13331427
-0.07456689 0.0048397826 0.026959812 0.022757381 0.031136598 0.03179239 0.033265885 -0.013396624
0.018762505 0.002043916 -0.026712691 0.06732577 0.0024328055 0.04065452 0.051307786 -0.05039877
-0.04917185 -0.119452596 -0.13917007 -0.032656748 0.002622156 0.019000413 -0.021208892 0.007164816
-0.001824141 -0.04747863 0.069235794 0.014565678 -0.083519325 -0.16546014 -0.08909131 -0.14174919
0.027926028 0.18062013 0.104884185 0.13763905 0.14808352 0.0127938455 0.14960256 0.041677974
0.10450344 0.1377705 0.014908829 0.18918455 -0.014596304 -0.108128324 0.07385748 0.011142045
-0.06609499 0.025547517 -0.06405197 -0.06318016 -0.024256935 -0.05676311 0.0057047987 0.028570965
0.082255 0.080790624 -0.015440552 0.037259653 0.059339445 -0.022386942 0.04169617 -0.0051751467
0.13459568 0.11395691 0.03752244 0.13496499 -0.03369668 -0.15555803 -0.09656818 -0.15603898
-0.06011301 -0.011273645 -0.05342148 -0.04091461 0.0009627617 0.005788134 0.00041788898 -0.040817272
0.033550024 0.0066664196 0.00015153603 0.11627652 0.028454345 0.12083134 0.1060069 -0.079561904
0.006730203 -0.07548245 -0.17284527 -0.022692215 0.0052348073 0.038949765 -0.055720944 0.04958855
-0.013366838 -0.010277773 0.021394087 -0.016558144 -0.06326093 -0.046249874 0.024284316 0.011376485
0.021439606 0.012696391 -0.03901768 -0.04734578 0.0034144605 -0.0434052 -0.052901383 -0.046666197
-0.06874672 -0.047807693 0.033045936 -0.029547254 0.07758 0.070155844 -0.088924296 -0.06500847
0.040300786 -0.005588303 0.055812865 0.0127713075 0.010439382 0.042767186 -0.025271717 0.09410387
-0.00014087943 0.026054593 -0.05380448 -0.08511855 0.0044321083 -0.15920472 -0.101503715 -0.03162097
0.07544131 0.011669065 -0.058762386 0.096656784 -0.034804378 -0.14576586 -0.0022321558 -0.11361174
-0.12127532 -0.00348171 -0.027447639 0.010357449 -0.058124218 0.05863836 0.07291343 0.009026643
0.08395544 0.06486677 -0.08880965 0.013564026 0.10338754 -0.09609758 0.058157567 0.1770829
0.010948758 0.09381748 0.15650132 0.005249389 -0.057622224 0.031241365 -0.011946726 -0.06185442
0.022487136 -0.057427995 -0.035156783 0.057205833 0.11195771 0.030239414 -0.057418894 -0.04347981
-0.12685357 -0.115389824 -0.0835703 -0.08977001 -0.035474826 -0.074310035 -0.014241667 0.09778019
-0.038115803 0.062532 0.098236136 0.09526564 0.17790326 0.18182202 -0.04478121 -0.015870461
0.07130009 -0.0070647863 0.014460509 0.020597152 0.09543291 0.078101896 0.057513446 0.0012103448
-0.086810105 -0.004255971 -0.0753266 -0.076061115 0.03286583 -0.087352976 -0.055956174 0.054525696
0.021375831 0.011071902 -0.00985888 0.0865995 0.059518535 -0.052026767 0.09378339 -0.005905983
-0.13473934 0.030966742 0.05691089 0.081976354 0.061517373 0.04239901 -0.026042882 0.11598641
-0.014257319 -0.06232673 -0.04685744 -0.04933522 0.053004544 -0.055186845 0.053766925 0.07585732
-0.042211737 0.0324327 0.03419824 -0.08272186 -0.023115845 0.09035319 -0.0985996 -0.014376809
0.07415522 -0.06636438 0.0012414446 0.0061288606 -0.059468463 -0.07479196 -0.011647947 -0.05364295
00000000: 9375 263d ac29 053d e601 98bb d8c1 863d
00000010: d514 44bd 0228 a3bd eddb 9ebd 8983 08be
00000020: 87b6 98bd 0a97 9e3b d3da dc3c b06d ba3c
00000030: 2e12 ff3c bd38 023d cf41 083d 837d 5bbc
00000040: d3b3 993c 38f3 053b 93d4 dabc 18e2 893d
00000050: b46f 1f3b 5b85 263d 1d28 523d f16e 4ebd
00000060: 6c68 49bd 90a3 f4bd 9982 0ebe 15c3 05bd
00000070: 7ad8 2b3b c1a6 9b3c 45be adbc d5c6 ea3b
00000080: 0418 efba f478 42bd 7fcb 8d3d e2a4 6e3c
00000090: 2e0c abbd 626e 29be 8175 b6bd b326 11be
000000a0: 20c5 e43c 7cf4 383e 85cd d63d 40f1 0c3e
000000b0: 35a3 173e 479d 513c 6a31 193e 86b6 2a3d
000000c0: e605 d63d b613 0d3e 2944 743c 98b9 413e
000000d0: 5625 6fbc 6272 ddbd 9742 973d 208d 363c
000000e0: cf5c 87bd 0749 d13c ae2d 83bd 9a64 81bd
000000f0: 7bb6 c6bc 6f80 68bd 52ef ba3b a80d ea3c
00000100: 4f75 a83d 8e75 a53d 5efa 7cbc 949d 183d
00000110: eb0d 733d d264 b7bc 9ac9 2a3d 4794 a9bb
00000120: 73d3 093e 3e62 e93d 21b1 193d 4334 0a3e
00000130: 8805 0abd 9b4a 1fbe 8ac5 c5bd afc8 1fbe
00000140: 0f39 76bd 18b5 38bc 7bd0 5abd 1496 27bd
00000150: d861 7c3a 63aa bd3b 1c18 db39 0330 27bd
00000160: c06b 093d fb71 da3b a5e5 1e39 6222 ee3d
00000170: 1619 e93c 6c76 f73d 251a d93d 5af1 a2bd
00000180: 0989 dc3b 8b96 9abd 5afe 30be 06e5 b9bc
00000190: bf88 ab3b ca89 1f3d a53b 64bd 5d1d 4b3d
000001a0: 9500 5bbc 1b64 28bc a742 af3c f2a4 87bc
000001b0: f28e 81bd 8270 3dbd e7ef c63c 7064 3a3c
000001c0: 1da2 af3c 8604 503c 01d1 1fbd a6ed 41bd
000001d0: 24c5 5f3b a7c9 31bd 1faf 58bd 0e25 3fbd
000001e0: 15cb 8cbd 00d2 43bd 2d5b 073d 150d f2bc
000001f0: 43e2 9e3d dead 8f3d f11d b6bd 2923 85bd
00000200: 7012 253d 151e b7bb 089c 643d bf3e 513c
00000210: f109 2b3c a52c 2f3d a206 cfbc 88b9 c03d
00000220: 09b9 13b9 7170 d53c 1662 5cbd a252 aebd
00000230: 383b 913b 9006 23be 2ee1 cfbd fe84 01bd
00000240: f980 9a3d 9b2f 3f3c d4b0 70bd fef3 c53d
00000250: 098f 0ebd a543 15be 5c49 12bb 46ad e8bd
00000260: 325f f8bd 672d 64bb dfd9 e0bc 4ab2 293c
00000270: a913 6ebd c72e 703d a353 953d 7ce4 133c
00000280: d4f0 ab3d ded8 843d d5e1 b5bd a63b 5e3c
00000290: d9bc d33d cfce c4bd a136 6e3d 3855 353e
000002a0: 6b62 333c 6123 c03d e241 203e 1103 ac3b
000002b0: 4805 6cbd e4ed ff3c 33bc 43bc 0f5b 7dbd
000002c0: f136 b83c 9e39 6bbd 8f00 10bd aa50 6a3d
000002d0: 154a e53d a6b8 f73c 1330 6bbd e317 32bd
000002e0: e7e5 01be 8051 ecbd e826 abbd 57d9 b7bd
000002f0: 0d4e 11bd dc2f 98bd e255 69bc fb40 c83d
00000300: 511f 1cbd c710 803d 0730 c93d a21a c33d
00000310: 462c 363e 8d2f 3a3e 816c 37bd c502 82bc
00000320: c805 923d b97f e7bb c5eb 6c3c 5cbb a83c
00000330: 5472 c33d e3f3 9f3d 3893 6b3d 6fa4 9e3a
00000340: 7fc9 b1bd ac75 8bbb d544 9abd eec5 9bbd
00000350: 529e 063d 1ee6 b2bd 4d32 65bd 5656 5f3d
00000360: 5e1c af3c ec66 353c 2487 21bc 145b b13d
00000370: b5c9 733d 051a 55bd 8211 c03d fa86 c1bb
00000380: 1cf9 09be f7ad fd3c 651b 693d 38e3 a73d
00000390: a4f9 7b3d 96aa 2d3d e257 d5bc 488a ed3d
000003a0: 8897 69bc 504a 7fbd 96ed 3fbd ba13 4abd
000003b0: 4b1b 593d 9a0b 62bd b53a 5c3d 155b 9b3d
000003c0: 37e6 2cbd 27d8 043d 7413 0c3d 146a a9bd
000003d0: 715d bdbc 180b b93d 96ee c9bd b58c 6bbc
000003e0: b1de 973d 0cea 87bd f8b7 a23a 9cd4 c83b
000003f0: 3495 73bd 872c 99bd 08d7 3ebc b6b8 5bbd

105 f4 [32]
-0.07713644 -0.23941427 0.30176997 0.48393634 -0.918617 1.2392899 -0.0026357342 -0.1936004
0.22310026 -0.842089 0.9434469 -0.09316893 -0.19367039 -0.15099522 -0.24401726 0.16259757
0.4118964 -0.13554484 0.023604974 0.048330113 -0.5087354 0.16475861 0.29090598 0.5110975
1.1111226 0.41477913 -0.066318996 -0.38019395 0.06373032 -0.120482475 0.11307281 -1.7438626
00000000: b6f9 9dbd 0429 75be 9881 9a3e 81c6 f73e
00000010: 7c2a 6bbf 0da1 9e3f 48bc 2cbb 2f3f 46be
00000020: 6574 643e 2593 57bf bc85 713f 5acf bebd
00000030: 8851 46be 7e9e 1abe a9df 79be fa7f 263e
00000040: 16e4 d23e 44cc 0abe 385f c13c ccf5 453d
00000050: 7c3c 02bf 7bb6 283e a1f1 943e 49d7 023f
00000060: 4439 8e3f ee5d d43e 41d2 87bd c8a8 c2be
00000070: 0b85 823d 84bf f6bd b892 e73d e436 dfbf

107 f4 [32, 32, 3, 3]
-0.09925022 -0.19529672 -0.20031203 -0.12254012 -0.12722135 -0.12796298 -0.17701238 0.08889646
0.0060421224 -0.027057441 -0.09882326 -0.019578502 -0.12670857 -0.0056826803 -0.029096438 -0.1353385
-0.037534013 -0.11196207 0.0058888607 -0.04218846 -0.10546462 0.05072867 0.12222873 -0.020158267
0.029280713 0.17367525 0.056648746 0.09328846 -0.025999488 -0.10057235 0.13522494 -0.029560525
-0.053468194 0.061171856 0.05975162 0.0027036006 -0.0040171044 0.032212127 -0.015390744 0.0037090268
0.027524753 0.025067588 -0.028844407 0.071175344 -0.023760209 0.14583722 0.062247027 0.0108289225
0.28458178 0.15537314 0.13516659 0.19987766 0.10599548 0.107650585 -0.046515126 -0.047024652
-0.04092197 -0.058874473 -0.013757954 -0.019269383 -0.12249673 -0.052533958 -0.041270517 0.030430593
0.035301242 -0.058314625 0.086082965 0.017749818 -0.03713565 0.15211406 0.120400436 0.014799188
-0.040890276 0.015232134 0.039658103 -0.022518704 0.015144855 0.08836255 -0.17124577 -0.05816345
-0.033892557 0.027396264 0.014285057 -0.00076601584 -0.014669761 -0.022913225 0.14221628 -0.095774435
0.06142312 0.23300923 0.12943527 0.080758676 0.06099907 0.14175254 0.1402699 0.0016295091
0.009680866 -0.012142977 -0.22726373 -0.11928622 0.04875246 0.009724131 -0.1126162 0.07505482
0.099472694 -0.06824947 0.038094945 0.0114701 -0.06470658 0.023912959 0.09196179 -0.035949223
0.046865232 0.07262816 -0.035355356 0.04399093 0.06592254 -0.099219814 -0.011966651 0.032954205
-0.017737765 0.038030412 0.07081431 0.05318999 0.08441895 0.10541196 0.002621726 0.030993182
0.03404309 -0.051549196 -0.03388241 0.04682498 -0.075573914 0.0052836384 0.040819123 -0.027445063
0.10066975 0.08324715 0.008006413 0.08553389 0.064616896 0.055274636 -0.028275471 -0.0015456504
0.026855908 0.101418085 0.16546799 0.025898851 0.10108835 0.059681416 0.065206 -0.03646587
-0.061446965 -0.084243335 -0.032886963 -0.040525924 -0.056273412 -0.038401876 -0.11004043 0.0071102395
0.026273007 0.028461788 -0.0913449 0.04130469 -0.0427117 -0.10578177 0.040034194 0.03285624
-0.05456128 0.026996572 -0.06031619 -0.037219703 -0.04727502 -0.0029799633 -0.040953144 0.025067536
0.047989246 0.030695852 -0.039264016 0.02578424 0.021650873 0.10699041 0.15365367 -0.011435149
0.0019986958 0.13267705 -0.09863704 -0.063169226 -0.025442164 -0.020506034 0.04055478 0.058969982
-0.076013476 -0.019036204 0.031134952 -0.10977402 -0.119474985 0.016999962 -0.1522739 -0.011297589
-0.039587993 -0.094840564 0.06423038 0.0672083 -0.013088497 0.15638344 0.117451064 0.062109113
-0.019972213 -0.03776214 0.090870075 0.08128006 0.02225016 0.13594803 0.10823868 0.0068297805
-0.10421119 -0.027778324 0.005363137 -0.13510363 -0.03963396 0.0037562696 -0.25820163 -0.16510262
-0.091805354 0.16427834 0.04182653 -0.1169353 0.09310674 -0.01273773 -0.15644167 -0.110566966
-0.14296474 -0.24608077 -0.12330239 0.06883916 0.14465424 -0.06765502 0.036483213 0.04135872
0.050527267 0.0030090944 -0.073633574 -0.12113841 -0.08239037 -0.03854026 -0.061510835 -0.04255018
0.009386102 -0.02736015 0.03948521 0.061394874 -0.05088486 -0.017557325 -0.02855156 -0.046029195
00000000: b343 cbbd ddfb 47be 991e 4dbe 50f6 fabd
00000010: 5046 02be ba08 03be bc42 35be 590f b63d
00000020: fffc c53b 91a7 ddbc d963 cabd 1863 a0bc
00000030: e4bf 01be c735 babb a75b eebc 2d96 0abe
00000040: 44bd 19bd 5f4c e5bd 58f7 c03b cecd 2cbd
00000050: d6fd d7bd dec8 4f3d 0e53 fa3d f322 a5bc
00000060: 1bde ef3c edd7 313e 8408 683d 050e bf3d
00000070: e1fc d4bc e0f8 cdbd 6878 0a3e ea28 f2bc
00000080: 7701 5bbd 578f 7a3d 1dbe 743d e42e 313b
00000090: eaa1 83bb ddf0 033d 7629 7cbc 2513 733b
000000a0: 977b e13c 8b5a cd3c 1b4b ecbc 61c4 913d
000000b0: c5a4 c2bc 5a56 153e bdf6 7e3d cb6b 313c
000000c0: b4b4 913e 231a 1f3e 1c69 0a3e bbac 4c3e
000000d0: 2914 d93d e977 dc3d a586 3ebd ec9c 40bd
000000e0: cc9d 27bd 5c26 71bd 0b69 61bc d3da 9dbc
000000f0: 91df fabd d92d 57bd 460b 29bd 9449 f93c
00000100: 0998 103d 51db 6ebd 444c b03d 1168 913c
00000110: 8d1b 18bd cac3 1b3e 8194 f63d 4b78 723c
00000120: 907c 27bd 3390 793c 8970 223d 2579 b8bc
00000130: 2022 783c 6df7 b43d 0d5b 2fbe cc3c 6ebd
00000140: ecd2 0abd 216e e03c df0b 6a3c 74ce 48ba
00000150: 7059 70bc 84b4 bbbc 25a1 113e 6325 c4bd
00000160: cf96 7b3d f999 6e3e ae8a 043e ce64 a53d
00000170: 29da 793d 9427 113e eaa2 0f3e 4195 d53a
00000180: 7f9c 1e3c 56f3 46bc d3b7 68be 554c f4bd
00000190: a9b0 473d f651 1f3c 52a3 e6bd 57b6 993d
000001a0: 57b8 cb3d 61c6 8bbd 7209 1c3d 16ed 3b3c
000001b0: e284 84bd 1ce5 c33c 7756 bc3d 7e3f 13bd
000001c0: c2f5 3f3d 13be 943d c7d0 10bd d52f 343d
000001d0: 6602 873d c233 cbbd c60f 44bc fdfa 063d
000001e0: ca4e 91bc c7c5 1b3d 1807 913d bfdd 593d
000001f0: d8e3 ac3d 3ae2 d73d 43d1 2b3b 6ae5 fd3c
00000200: c470 0b3d 4025 53bd 48c8 0abd 8dcb 3f3d
00000210: 7fc6 9abd 5f22 ad3b f431 273d 78d4 e0bc
00000220: f12b ce3d 7b7d aa3d 542d 033c 642c af3d
00000230: dd55 843d a867 623d f6a1 e7bc 6c97 caba
00000240: ec00 dc3c 49b4 cf3d 7170 293e d429 d43c
00000250: 6907 cf3d 8074 743d b98a 853d 3c5d 15bd
00000260: d0af 7bbd c587 acbd 7bb4 06bd 83fe 25bd
00000270: f37e 66bd 494b 1dbd e15c e1bd 03fd e83b
00000280: 7d3a d73c b228 e93c 0913 bbbd 1b2f 293d
00000290: 77f2 2ebd 1da4 d8bd e5fa 233d 4494 063d
000002a0: a67b 5fbd ea27 dd3c 1c0e 77bd b073 18bd
000002b0: 74a3 41bd 7d4b 43bb 7cbe 27bd 6f5a cd3c
000002c0: 5f90 443d de75 fb3c 4ed3 20bd 7839 d33c
000002d0: 2c5d b13c ca1d db3d 6357 1d3e 7e5a 3bbc
000002e0: 8dfc 023b 7edc 073e 3702 cabd de5e 81bd
000002f0: 166c d0bc 45fc a7bc c51c 263d 828a 713d
00000300: f4ac 9bbd d0f1 9bbc ba0e ff3c 34d1 e0bd
00000310: 4daf f4bd 8143 8b3c b0ed 1bbe 8619 39bc
00000320: 0527 22bd c53b c2bd 388b 833d 81a4 893d
00000330: 2371 56bc fb22 203e 2f8a f03d 2066 7e3d
00000340: c49c a3bc 79ac 1abd 171a ba3d 2976 a63d
00000350: f845 b63c f635 0b3e 3eac dd3d 5acc df3b
00000360: ad6c d5bd 5e8f e3bc 41bd af3b 9b58 0abe
00000370: 3857 22bd bf2b 763b 0133 84be a910 29be
00000380: 7204 bcbd 9538 283e 4c52 2b3d c67b efbd
00000390: bfae be3d e9b1 50bc 3f32 20be ef70 e2bd
000003a0: 5965 12be 99fc 7bbe f785 fcbd 8cfb 8c3d
000003b0: 3e20 143e b78e 8abd 6c6f 153d c367 293d
000003c0: aef5 4e3d 3a34 453b 33cd 96bd 6a17 f8bd
000003d0: 48bc a8bd 64dc 1dbd c9f2 7bbd 1949 2ebd
000003e0: 2ac8 193c 6522 e0bc 3ebb 213d 3179 7b3d
000003f0: a56c 50bd 61d4 8fbc f6e4 e9bc 1c89 3cbd

108 f4 [32]
0.021305896 0.5408529 0.7154692 0.5525575 0.027968243 0.16250572 -0.010078128 -0.21203782
0.51468545 0.7050915 0.47258696 0.9794759 -0.029122889 0.19051223 0.990289 0.3493618
0.27675027 0.115440756 0.2063932 0.5478735 -0.2374553 0.47435406 0.14319603 0.22684963
0.45171446 0.100327864 -0.29382432 0.1617445 0.6686109 -0.12897137 0.35617685 0.15249014
00000000: b489 ae3c 5675 0a3f fd28 373f 6974 0d3f
00000010: a81d e53c e667 263e bc1e 25bc 7120 59be
00000020: 6dc2 033f e080 343f ebf6 f13e efbe 7a3f
00000030: 2093 eebc a315 433e 9483 7d3f 8ddf b23e
00000040: 36b2 8d3e 346c ec3d bd58 533e 7041 0c3f
00000050: 7b27 73be 89de f23e fba1 123e 454b 683e
00000060: 1e47 e73e b278 cd3d 2470 96be 5aa0 253e
00000070: 152a 2b3f 1211 04be d05c b63e 6026 1c3e

110 f4 [32, 16, 1, 1]
0.06822433 0.009533363 -0.068379566 -0.044345412 -0.057774894 -0.04808095 0.030070122 -0.022718003
0.005395132 0.0071504917 0.03422014 -0.0025697188 0.03549919 -0.044780627 -0.012883595 0.056082394
-0.14472203 -0.06409906 -0.086977325 -0.11007564 -0.05835797 0.08183343 -0.0007364323 0.038430437
0.0055946666 0.0070819883 -0.043950453 -0.05247747 -0.011276615 0.0061342986 0.07804395 -0.107361265
-0.18670349 -0.005518304 0.07345672 -0.04361967 -0.074086845 0.021745242 -0.02521341 -0.05289029
-0.062102005 -0.06196467 0.06612603 0.055172756 0.027280314 -0.3578249 0.026334817 -0.2553186
-0.079687156 0.019005597 0.095520906 0.082301356 0.04135432 0.13797043 0.17941412 -0.01766816
0.1265797 -0.04421064 -0.3616406 -0.020827044 0.07045218 -0.11594517 0.04835246 -0.23255444
-0.041699693 0.005249278 -0.07029206 -0.05538757 0.027483502 0.0019809667 0.03346264 0.0307382
-0.019255755 -0.022095047 -0.006520777 -0.0038758372 -0.04457748 0.055778783 -0.01929041 0.03034857
-0.20390898 -0.06358429 -0.0033152734 0.15533407 0.15557244 0.0027176042 -0.13718823 -0.07623791
0.24294522 0.17072906 0.17536682 -0.23059142 0.01960787 0.08680447 0.04298665 -0.069198415
0.11454372 0.022377506 0.056073505 0.0074013635 -0.041069258 0.10180185 0.08159747 0.0021908835
0.07200781 0.18218239 -0.18182984 -0.01757827 0.033297975 -0.18689758 0.13372427 0.36559042
-0.123708144 -0.0019225676 0.02775024 0.18103735 0.007337603 0.036525536 -0.094539374 0.046376675
-0.02080426 0.10490271 -0.093989044 -0.024554508 -0.054575454 -0.33542898 0.039089233 0.26244318
0.014621182 -0.018767206 0.022032795 -0.042347215 -0.0150256185 0.010650028 0.0035290928 -0.003426904
6.869133e-05 -0.019713363 0.021765925 0.0036037748 -0.00964246 -0.00011884869 -0.018787492 0.0015973833
-0.023806684 -0.01753882 0.06889385 -0.0834365 -0.11485136 0.017918523 0.01825835 -0.0075801113
-0.005720245 -0.030175589 -0.037743844 -0.04500053 -0.03461109 -0.008687509 -0.0017657613 -0.036291495
0.06072999 0.005657365 -0.005057154 -0.10174221 -0.05170766 0.033880483 -0.011049544 -0.024479028
-0.011196612 -0.074061215 -0.26014894 -0.26761234 0.041484825 0.17826603 -0.027424641 -0.46249205
0.1569274 0.0644133 -0.052367043 -0.054201778 -0.02725739 0.13652363 0.063523814 -0.07620966
-0.04732587 -0.03996366 -0.11191724 -0.044343486 0.047922354 -0.03899134 -0.023242017 0.07496692
0.16880628 0.026869906 -0.04254111 0.0788066 -0.13993986 -0.04728163 -0.19612975 -0.26188242
-0.058966734 0.111456215 0.09470957 -0.004728794 0.05247965 -0.0024662912 0.08459903 0.006298991
-0.10016114 -0.044310067 -0.0443184 0.010393377 0.028399007 -0.018264476 0.090625755 0.054506324
0.041133314 -0.07634102 0.092736855 -0.07335113 -0.014765913 -0.1620469 -0.010849569 -0.113679156
-0.0005235905 0.040648997 -0.011812652 -0.02583895 0.03466192 -0.028955292 0.015175694 0.0245984
0.006102976 0.008664065 -0.010474601 0.012457893 0.027518025 -0.012107616 0.011682739 0.010567117
0.02139191 0.005245081 0.053846855 -0.047695223 -0.08178384 0.19977213 -0.15901963 -0.059679337
-0.10052737 -0.0051104943 -0.11931886 -0.17326555 0.0688531 -0.060650647 -0.13904633 0.4702938
00000000: 33b9 8b3d d331 1c3c 960a 8cbd 89a3 35bd
00000010: 5ea5 6cbd 88f0 44bd 9e55 f63c 1b1b babc
00000020: a6c9 b03b ac4e ea3b 6b2a 0c3d ba68 28bb
00000030: 9967 113d e46b 37bd b715 53bc a7b6 653d
00000040: 0332 14be 5e46 83bd 2b21 b2bd 566f e1bd
00000050: c408 6fbd 4998 a73d 230d 41ba 3c69 1d3d
00000060: 7753 b73b 0610 e83b 6405 34bd 9ef2 56bd
00000070: 8dc1 38bc 3a02 c93b 82d5 9f3d 39e0 dbbd
00000080: 332f 3fbe e4d2 b4bb 7a70 963d 8aaa 32bd
00000090: d8ba 97bd 1423 b23c 5a8c cebc 7da3 58bd
000000a0: ac5e 7ebd aace 7dbd 166d 873d d4fc 613d
000000b0: f77a df3c d334 b7be 1dbc d73c 1fb9 82be
000000c0: 0533 a3bd a0b1 9b3c 77a0 c33d 9d8d a83d
000000d0: 2663 293d 1f48 0d3e 56b8 373e d1bc 90bc
000000e0: 1c9e 013e 3716 35bd f528 b9be 7a9d aabc
000000f0: 3c49 903d a974 edbd 3b0d 463d c022 6ebe
00000100: 4ccd 2abd 2302 ac3b 49f5 8fbd 14de 62bd
00000110: 1525 e13c 1bd3 013b 1f10 093d adce fb3c
00000120: 3fbe 9dbc ac00 b5bc 3eac d5bb c201 7ebb
00000130: e096 36bd 4b78 643d ec06 9ebc 909d f83c
00000140: 84cd 50be 7b38 82bd 0f45 59bb e50f 1f3e
00000150: 624e 1f3e d519 323b 127b 0cbe 9f22 9cbd
00000160: a2c6 783e 99d3 2e3e 5c93 333e 2820 6cbe
00000170: afa0 a03c 8bc6 b13d c512 303d e6b7 8dbd
00000180: e695 ea3d 0851 b73c 55ad 653d 2387 f23b
00000190: 3d38 28bd 7d7d d03d 931c a73d ed94 0f3b
000001a0: d578 933d 058e 3a3e 9a31 3abe 4e00 90bc
000001b0: 7563 083d 1462 3fbe 04ef 083e ab2e bb3e
000001c0: b25a fdbd aafe fbba 7954 e33c db61 393e
000001d0: 4670 f03b cd9b 153d dc9d c1bd 78f5 3d3d
000001e0: b26d aabc 3bd7 d63d 547d c0bd 8926 c9bc
000001f0: 838a 5fbd 59bd abbe 081c 203d f45e 863e
00000200: af8d 6f3c afbd 99bc 1f7e b43c 4674 2dbd
00000210: 032e 76bc 747d 2e3c 5a48 673b e995 60bb
00000220: 610e 9038 eb7d a1bc 744e b23c 4f2d 6c3b
00000230: 69fb 1dbc 683e f9b8 3ae8 99bc 4a5f d13a
00000240: 3c06 c3bc 92ad 8fbc 3818 8d3d c1e0 aabd
00000250: 3137 ebbd dec9 923c 8992 953c 9562 f8bb
00000260: e570 bbbb cc32 f7bc 4a99 1abd 7a52 38bd
00000270: 5cc4 0dbd 0e56 0ebc 1e71 e7ba 64a6 14bd
00000280: 03c0 783d 6b61 b93b 7cb6 a5bb 385e d0bd
00000290: 69cb 53bd 43c6 0a3d 2609 35bc 3e88 c8bc
000002a0: ff71 37bc 68ad 97bd 3e32 85be 7c04 89be
000002b0: feeb 293d 5f8b 363e a4a9 e0bc c2cb ecbe
000002c0: 94b1 203e 1feb 833d d37e 56bd af02 5ebd
000002d0: e44a dfbc dacc 0b3e c618 823d cf13 9cbd
000002e0: c5d8 41bd efb0 23bd de34 e5bd 84a1 35bd
000002f0: 3b4a 443d 62b5 1fbd 0b66 bebc 4288 993d
00000300: 8edb 2c3e 471e dc3c 963f 2ebd 5b65 a13d
00000310: 654c 0fbe 62aa 41bd 3dd6 48be 7415 86be
00000320: 1a87 71bd 2843 e43d 17f7 c13d 00f4 9abb
00000330: e7f4 563d 80a1 21bb 4242 ad3d c467 ce3b
00000340: 4921 cdbd 797e 35bd 3687 35bd fc48 2a3c
00000350: 09a5 e83c 629f 95bc ff99 b93d 0642 5f3d
00000360: 687b 283d ae58 9cbd d2ec bd3d 1e39 96bd
00000370: baec 71bc 9fef 25be 64c2 31bc 9ed0 e8bd
00000380: 9041 09ba 907f 263d db89 41bc 35ac d3bc
00000390: a8f9 0d3d a633 edbc 79a3 783c 9582 c93c
000003a0: 79fb c73b b9f3 0d3c a99d 2bbc 311c 4c3c
000003b0: 7b6d e13c 065f 46bc f568 3f3c b321 2d3c
000003c0: 163e af3c eede ab3b 858e 5c3d 115c 43bd
000003d0: 497e a7bd 1191 4c3e 0bd6 22be 5272 74bd
000003e0: 4be1 cdbd ef75 a7bb 725d f4bd 866c 31be
000003f0: db02 8d3d d06c 78bd 2962 0ebe 59ca f03e

111 f4 [32]
0.11419663 0.12413992 0.19045918 -0.045927383 -0.07212293 -0.39474845 -0.37067738 -0.30311766
0.10052864 0.08322418 0.34228316 0.059523616 -0.36444038 0.104536414 0.101684615 -0.01839758
0.03409654 -0.0150421895 0.046495877 0.34293866 -0.08437397 -0.026107814 -0.06646937 0.20471068
-0.04124608 -0.110283844 -0.123319484 -0.14926939 0.21643715 0.053110685 -0.10666354 -0.11834482
00000000: ecdf e93d 123d fe3d bb07 433e 5a1e 3cbd
00000010: 30b5 93bd 781c cabe 6dc9 bdbe 3d32 9bbe
00000020: f6e1 cd3d 7071 aa3d bd3f af3e 09cf 733d
00000030: ee97 babe 3017 d63d 0640 d03d 86b6 96bc
00000040: d0a8 0b3d 8473 76bc 7672 3e3d a895 af3e
00000050: 43cc acbd 0ee0 d5bc 1821 88bd ad9f 513e
00000060: a6f1 28bd 7fdc e1bd ed8e fcbd 13da 18be
00000070: b3a1 5d3e 978a 593d 6a72 dabd c55e f2bd
